cifar-10-batches-py/resnet_quantized.ckpt (torch, 814539 bytes, 76 tensors)

conv.weight f4 [16, 3, 3, 3]
00000000: e244 4e3e 700a 26be dd71 8cbe a326 be3d
00000010: 22a5 90be 62a0 82bd 3ffc ce3d ca75 42bd
00000020: ec5b 6c3e 2fe7 6c3e 8ba0 cdbd 6f99 2a3e
00000030: 26ea 0c3d 844a 1ebe 24df 753d e95e f6bc
00000040: d096 25b9 559f f9bd 27ce 4fbc ca31 c23c
00000050: a6f8 86bd 508f 77be d25d 51be 8cbf 983e
00000060: 5850 7b3d dcba 363e 4933 163d 1a44 d4bd
00000070: 9678 bd3d 205e 85bd 41e7 d23c d9a3 0bbe
00000080: 039c 23be 3e96 953d 02a1 543e b12b cf3d
00000090: 42b3 76bc 82a3 e1bd 9a7b 03be e421 f0bc
000000a0: 7253 b63e 5644 e53d f192 663e a737 ad3e
000000b0: ffb5 953d 3cd1 e9bd 8c02 4b3e b85f 1fbe
000000c0: 46e2 b13d 81e8 233e 9897 e83b 10ef 10be
000000d0: 188d 44be 87ac 88be 85f8 e13c 3d8b 75bc
000000e0: 7f1d 613e bae9 33be fb6c 3bbe 5861 773e
000000f0: 44da 0fbc 65f1 59bc 20f8 65bc 2a1f 463e
00000100: 968b 51be 9b7d a53b 98ae 9ebd 405f 88be
00000110: 0cd4 d03c edff a0bc c6ef ffbd d71e 1d3e
00000120: b6af db3d 99b1 5d3e a92d bbbd 52f7 793e
00000130: d4e4 d3bd c7fb 2fbd 8984 223e e999 ecbd
00000140: 90d2 dcbd 37bd 443e 9258 24be 365c ebbc
00000150: 2cf8 803d 9095 a23d fad5 eb3d dd2b 16be
00000160: cd1b fd3d 27a8 86be c325 a9bd f18e 9dbe
00000170: 4bfe 363e 1585 aebd bae0 72bd ef88 a83d
00000180: 790d cf3c f584 903e f4d0 c5bd ecff a1bd
00000190: ef45 84be c1b2 cebb 1da9 8e3d e95f d43d
000001a0: b74b 5b3c 9e11 0c3e 2b2b a73d cd26 3b3c
000001b0: eb5c 583e becb aa3e 652f 82bd 7687 403e
000001c0: b7a0 203e 3365 dd3d 8b15 12be d57d 06be
000001d0: 614f 793d 1305 743c 020c 74be 04ed 44be
000001e0: 5993 9abd a307 a0be 9486 e33d a487 043d
000001f0: 4c7d 17be fc66 2dbe 0a99 2abd de99 fe3d
00000200: 074d 57bd 5aef c2bd 1d3b e7bd 061a 25ba
00000210: cea0 5a3e fd4f 2f3e 2277 113e 62b0 a7bd
00000220: a722 87bd 2b98 033e 8903 8fbd 3cd2 373e
00000230: caa5 be3c ebd2 05be e2f7 643e 533a 503e
00000240: 8ff9 963e 02d5 bfbe f781 75bd 67a1 4e3c
00000250: 7077 63be 23d0 9dbc 5cc4 343e 809e 97bd
00000260: f81e 54bd 2103 cb3d e4c6 49be d827 e33d
00000270: 1a9c c63d 2eab cbbd b924 abbe c170 01be
00000280: 7756 453d 7021 33be b007 f43d 6d45 e73d
00000290: c5f6 3a3e adb7 b93d 811c 98be d1ce 713e
000002a0: 0a2b 9abe a0d5 6d3d 68f6 afbd 3ffa c4bd
000002b0: 854f 23be 646d bbbc b00a 29bd d439 6fbe
000002c0: 26ec 8d3e a112 753c de8a cb3d 669d 2e3d
000002d0: 43b0 52be 2dcc 49be a6f4 4f3e 67b6 f93d
000002e0: c1b6 43be a65c 633e 8831 8a3d 486b 653d
000002f0: df53 85bc cd20 5ebe 63c7 08be 5627 d6bd
00000300: 9e71 75be 990b 76be cab2 35be 39e3 26bc
00000310: 484d a9bd e47e 09be 6f5f 423e 63a7 513e
00000320: bf28 d83d 3263 773e 6175 803e e450 353e
00000330: b50c 583d cb9c 073d 905d a43d 5b3c df3d
00000340: 0f76 d8bd ed2c d63b d425 d1bd b8f0 603e
00000350: 9d49 4f3e e0dd 893d 0858 3abe 373d d23b
00000360: c250 b1bd dd5b 8e3e 0744 43bb 643d 843e
00000370: 162d 11be 5e86 0bbe 04b5 43bd ddbf 1ebe
00000380: b046 573d 407a d63c c893 8fbe 79f4 5cbd
00000390: 8ee6 9cbc 208c 05bf d03b 2cbe cadc 283d
000003a0: b338 c23d 15fb 6cbd d825 2fbe ca77 05bd
000003b0: de01 2b3c 6e61 5abd 8164 bebe 5fd3 6c3c
000003c0: ad9f 77bd a95f 19bd 0c36 763b ef81 30bd
000003d0: 5608 8abe e873 723d 85cf f23c 2dc9 5fbe
000003e0: e471 363d fd0e 753e 205f 813e 4ba9 213e
000003f0: 1a35 0dbe 809d 4e3e ef8d cabb 8ba8 65be
0.20143464 -0.16214919 -0.2743062 0.09284713 -0.28250986 -0.06378247 0.10106706 -0.047475614
0.2308194 0.23135065 -0.10040387 0.16660093 0.03440299 -0.15458113 0.060027257 -0.030074554
-0.00015791808 -0.12188593 -0.012683428 0.023705382 -0.06590395 -0.24175763 -0.20445946 0.2983364
0.06135592 0.17844719 0.036670003 -0.10364552 0.092515156 -0.065120935 0.025745036 -0.13636722
-0.15977482 0.07304047 0.20764545 0.10115755 -0.015057387 -0.11017515 -0.12840119 -0.029313035
0.3561054 0.11194675 0.22516991 0.33831522 0.073101036 -0.114168614 0.1982519 -0.15563858
0.08685736 0.16006662 0.0070981495 -0.14153695 -0.19194448 -0.26694128 0.027584324 -0.01498681
0.21983908 -0.17569628 -0.18303291 0.24158227 -0.008780066 -0.013302182 -0.014036208 0.19347826
-0.20463404 0.0050503737 -0.07748145 -0.2663517 0.025491737 -0.019653285 -0.12496905 0.15343796
0.107268736 0.2164978 -0.09139568 0.24410751 -0.1034638 -0.042964723 0.1587087 -0.115527935
-0.10782349 0.19212805 -0.16049412 -0.028730493 0.06297335 0.07938683 0.11515422 -0.1466517
0.12358818 -0.26300165 -0.082591556 -0.30773118 0.17870443 -0.08521477 -0.059296347 0.08229243
0.025274979 0.28226438 -0.09658995 -0.07910141 -0.25834605 -0.00630793 0.069658495 0.10369856
0.013384751 0.13678595 0.081625305 0.011422825 0.21129195 0.33358568 -0.06356696 0.18801674
0.15686308 0.10810318 -0.1426603 -0.13133939 0.060866717 0.014893788 -0.23832706 -0.1923104
-0.075476356 -0.31255826 0.11109653 0.03235592 -0.1479389 -0.16933817 -0.041649856 0.124316916
-0.052563693 -0.09518309 -0.11290572 -0.0006298128 0.21350405 0.17120357 0.14205602 -0.08187939
-0.06598406 0.12851016 -0.06983096 0.17951292 0.023272414 -0.1306874 0.22360185 0.20334749
0.29487273 -0.374672 -0.059938397 0.0126117235 -0.2221353 -0.019264286 0.1765303 -0.07403278
-0.051787347 0.09912706 -0.19704777 0.11091584 0.09697743 -0.09944759 -0.33426455 -0.12640668
0.048178162 -0.17493224 0.11915529 0.11292539 0.18258198 0.090682365 -0.29709247 0.2361405
-0.3011096 0.058065057 -0.0859192 -0.09618043 -0.15948303 -0.02287931 -0.041269958 -0.23361903
0.2771923 0.014958055 0.09938596 0.042630576 -0.20575051 -0.19706793 0.2030817 0.121929936
-0.19112684 0.22203311 0.067477286 0.056010514 -0.016275344 -0.216922 -0.1335731 -0.104567215
-0.23969123 -0.24027862 -0.17743984 -0.01018601 -0.08266693 -0.13427311 0.18981718 0.20474009
0.10554647 0.24158934 0.25089553 0.17706639 0.052746493 0.033108514 0.08025658 0.10900184
-0.10569393 0.0065361173 -0.10212293 0.21966827 0.20242925 0.067317724 -0.18197644 0.006415989
-0.086579815 0.2780446 -0.0029795186 0.25828087 -0.14177355 -0.13625476 -0.04778005 -0.15502878
0.052557647 0.02618134 -0.28042436 -0.053944085 -0.019152906 -0.5216694 -0.16819692 0.041226186
0.09483471 -0.057856638 -0.1710428 -0.032584943 0.010437457 -0.053315572 -0.37186053 0.014454692
-0.060455013 -0.037444744 0.0037568836 -0.043092664 -0.26959485 0.059192568 0.029639969 -0.21854086
0.04454221 0.23931499 0.25267887 0.15787236 -0.13789788 0.20177269 -0.0061814706 -0.22427575

bn.weight f4 [16]
00000000: 6b95 8b3f fc49 733f 9ed1 7f3f 0eaa 553f
00000010: fd3a 783f 7f20 5e3f 496f 9c3f 1259 383f
00000020: 1cc6 753f bdb1 633f 36fe 613f 8e55 623f
00000030: efdc 663f 7b66 823f 91fd 553f aef6 893f
1.0904974 0.95034766 0.99929225 0.8346261 0.9696501 0.86768335 1.2221462 0.7201091
0.96005416 0.8894308 0.8827852 0.88411796 0.9018087 1.0187525 0.83590037 1.0778406

bn.bias f4 [16]
00000000: 0a9a 803e 8636 e5bd 78c1 983e 5b17 843e
00000010: f0c6 253f 46eb f8bd cea7 173f 167a d53e
00000020: bbdd ebbc acf4 9c3e 27b6 bb3e 4037 5cbe
00000030: c1dd fdbd 5f1d 883e 57c7 e33d f78c 663f
0.25117522 -0.1119204 0.29835105 0.2579907 0.6475668 -0.1215425 0.59240425 0.41694707
-0.028792253 0.3065542 0.3666241 -0.21505451 -0.12395812 0.26584908 0.111220054 0.90058845

bn.running_mean f4 [16]
00000000: d5a7 05bd c4ac 4b3e 9520 95bb d962 ecbb
00000010: 4f90 023d b432 37be 3af3 933c 62d2 8a3d
00000020: fe9f 24bf 59b9 693b 3a0a b83c 955f 6dbe
00000030: 62c5 41be 751b b0bb a176 9f3c 9c20 b13c
-0.03263076 0.19890124 -0.004551003 -0.007213932 0.031875905 -0.17890435 0.018060315 0.067784086
-0.6430663 0.0035663454 0.022465814 -0.23180993 -0.18922952 -0.005374367 0.019465746 0.021621995

bn.running_var f4 [16]
00000000: f235 2d3c 8043 033d 0e5a 393c 49c7 183c
00000010: d3b0 e23b 9949 dd3c 7035 b03c c30a b23c
00000020: be0f 363e 19ce ff3b 312b 973c 4f5e 203d
00000030: 5044 543d 1784 3e3c 8125 ef3c 1eb8 ed3b
0.010571944 0.032046795 0.011312975 0.009324857 0.0069180517 0.027012633 0.021509856 0.021733647
0.17779443 0.007806551 0.018453212 0.03915244 0.05182296 0.011628172 0.029192688 0.0072546145

layer1.0.conv1.weight f4 [16, 16, 3, 3]
00000000: e394 0fbe f928 a33b f5e6 fd3b fa12 01bd
00000010: 7f01 a73d 1e06 a43e 3a02 1a3e 6f3b fe3d
00000020: 7156 b7bd 6f12 c0bc 3fb4 03be 2aa2 eabd
00000030: a459 ae3d 5055 5d3d 0f30 0d3b 9f59 9fbc
00000040: 077c 963d d533 e6bd 56f8 a53d 86ea 43bc
00000050: 22e3 883b 88cb 4bbc 920e c1bd ba84 d83d
00000060: 76be d5b7 7778 59be e5b5 32bd c7d1 d53d
00000070: 7e61 6e3e 008e cb3c e139 0f3e ace0 023c
00000080: a127 e53d 96fe 863d 4ee4 b5bd e6cf 42be
00000090: a638 3e3a 48e1 c0bd 36c9 eb3d a072 a53d
000000a0: 1c62 dd3d d188 713d f1ac ea3d 058c 883d
000000b0: de74 2bbe 9fdf 803e 6fee 1bbd 2532 0fbe
000000c0: 2275 f33d 5e58 0cbc 6859 82bc 818b 263c
000000d0: 12e0 eebd cf18 8ebd 1cb2 27bd c0c9 e73c
000000e0: 8017 b93d 74bd 9a3c 7b8c cdbd 7618 503d
000000f0: f93e 6d3d df9d b8bd d6a8 9bbd d109 6cbc
00000100: 48e9 13bd d04a bbbd 601b 04bd 68ba c5bd
00000110: 88cb 5a3d 9961 2bbd 0d01 8d3c e935 ab3d
00000120: 0cdc 97bd b402 8eba fcdc 47bc 9269 fabc
00000130: 9eaa 36bd adb8 0d3d 2820 c6bd 4f6c 8c3b
00000140: f9d7 a6bd b73d c3bd 6fe1 92be f23c 77be
00000150: 107d b63d 95b1 c6be e44f b6bd ba7d 13bd
00000160: 5a03 6cbe f987 80bd c307 35bd d6e7 c0bd
00000170: ecbe 2d3e 5cf0 48bc b203 323d 2220 fa3b
00000180: cda7 c1bd 88c4 36bb cf68 c23d 2083 42bd
00000190: 7ba5 a3bd 5bbb 473c 1874 03bd 46d8 db3c
000001a0: cfcf ea3b b255 cf3d 90ee 94bd eb0a 913d
000001b0: d7a4 a63c ed49 3f3e 91e8 0e3e 9b61 8abd
000001c0: 12ee e6bd 5dda babd df2a dc3c 896c c9bd
000001d0: 255e 95bd 3a4c 02be f626 7cbe 59c3 66bd
000001e0: aa85 e5bd 70e6 bd3c bff1 0ebd f61e 66bc
000001f0: 0b9a abbd 77bb 0dbd 77d2 08bd 2a76 e7ba
00000200: 891b d9bc e82a 81bb e507 e63c d8e2 f73d
00000210: 043d 733b 5147 1fbe 3334 a2b9 0753 39be
00000220: 9e29 553e 3519 8f3e 14e2 323e 65c4 223e
00000230: b949 8c3d a76d 8b3d 5914 7d3d 32cd d5bd
00000240: 106c 87bc 0266 6e3d 447d cbbd b93f 163a
00000250: 8beb 523e 6ac6 df3b 610f 9ebd f2db 6a3d
00000260: a4fe ed3c 56fb e83d fe5c 403e 7751 e73d
00000270: b34e fe3d e54e bc3c 28b4 c73d af0e ff3c
00000280: 43a4 f3bc 4507 8f3c 4569 11be 1e4a 14be
00000290: c2fd 423d 4df6 3d3c 4f7a 903d d95c 953d
000002a0: cdfc 893d 3640 033e d409 f73c a4f5 a9be
000002b0: 756b 04be 2aa2 03be 3f18 f4bc 92cb d73d
000002c0: 609f 1f3b 375d 67bd cc05 403b 7963 a83d
000002d0: 0150 563d 26fe 86bd 9f6e 27be 9e09 023e
000002e0: 2264 3a3d 4e4d 65bd c23e 8d3d dc3d bf3c
000002f0: 30b9 ed3c 1622 ea3d 3cff 1dbd d3b0 1a3d
00000300: c043 733d 3608 fb3d 6c0e c43d 0ab8 403b
00000310: 7c37 0dbd b60b d33d b3c5 0d3c ea3f 953d
00000320: 50a8 d6bd 5ef6 c73b 3e4d b03d 1c69 abbd
00000330: 384b f83c ca0a 473e 4ddb c33c 0c50 8bbd
00000340: 1bc8 9fbd 35a8 35be b2be 2ab9 df8c 8dbd
00000350: 88d4 933c 0d5e f33d 531b 033e f0ab c23b
00000360: 4ba0 573e f51e 7d3e 4218 803e 1bd3 833e
00000370: 3ef8 263e 8783 003e bd57 96bb 5c4d 893d
00000380: bda4 ff3c f172 9dbc a589 53bd 3412 1fbe
00000390: ecb3 d3bd 96bd 163e bb60 b5bd c24d 6f3d
000003a0: 1252 df3d e451 a43d 8d95 813c 89d7 183e
000003b0: d83d 9abd 1200 b83d 8973 103e 49bb b7bc
000003c0: f6f7 b33d 4a65 873e c55a e63d 834b 8a3e
000003d0: 8b06 503e 90b1 523c 2712 473e 99a5 843d
000003e0: 5e33 033b b619 d73d 125c 8d3d 7bb4 193d
000003f0: 3aa3 113e 0425 413e efd5 053e 8dcb 633d
-0.1402164 0.0049792496 0.0077484795 -0.031512238 0.08154582 0.32035917 0.15039912 0.1241368
-0.08952034 -0.02344629 -0.12861727 -0.114567116 0.08513191 0.05403644 0.0021543538 -0.019451914
0.07347875 -0.11240355 0.08104007 -0.01195777 0.004177467 -0.012438662 -0.09426607 0.105721906
-2.5480269e-05 -0.2123736 -0.0436305 0.104404025 0.23279378 0.024847984 0.13986923 0.007988136
0.11189199 0.06591527 -0.08881436 -0.1902462 0.0007256366 -0.09417969 0.11512987 0.080785036
0.108097285 0.05896837 0.11458767 0.066673316 -0.167438 0.2517061 -0.038069185 -0.13983972
0.11887576 -0.00856599 -0.015911773 0.010165096 -0.11663832 -0.069383256 -0.040941343 0.028294444
0.090376854 0.018889166 -0.1003656 0.050804578 0.057921384 -0.090144865 -0.07600562 -0.014406637
-0.036111146 -0.09145129 -0.03225267 -0.09654695 0.05341676 -0.041841123 0.017212415 0.08359892
-0.074150175 -0.0010834546 -0.012198683 -0.030567918 -0.044596307 0.03459995 -0.09674102 0.0042853723
-0.08146662 -0.095332555 -0.28687617 -0.24144343 0.089105725 -0.3880736 -0.08901957 -0.036008574
-0.23048154 -0.06275935 -0.044196855 -0.09419219 0.16967362 -0.012264337 0.043460555 0.007633225
-0.094558336 -0.0027888138 0.09492647 -0.04748833 -0.07990547 0.012190665 -0.032093138 0.026836526
0.007165886 0.10123767 -0.07272065 0.070821606 0.020342274 0.18680544 0.13955905 -0.06756898
-0.11275877 -0.09123681 0.026875911 -0.098351546 -0.07293347 -0.1272439 -0.24624237 -0.05633864
-0.11207135 0.02318117 -0.034898516 -0.014045468 -0.08378991 -0.03460261 -0.03340384 -0.0017659117
-0.026502388 -0.0039418824 0.028079936 0.12103814 0.0037115226 -0.15554549 -0.0003093794 -0.18098079
0.20816657 0.2794892 0.17469054 0.15895231 0.06849999 0.06808024 0.061786983 -0.104395285
-0.01653102 0.05820275 -0.09936002 0.00057315413 0.20597665 0.0068290727 -0.07717777 0.057338662
0.029052086 0.113760635 0.18785474 0.11294835 0.124173544 0.022986839 0.09751159 0.031134931
-0.029741412 0.017459521 -0.14200313 -0.14481398 0.047605284 0.011594367 0.070545785 0.072931
0.06737671 0.12817463 0.030156054 -0.3319522 -0.12931617 -0.1285483 -0.029796718 0.10536875
0.002435647 -0.05648538 0.002930033 0.08222098 0.05232239 -0.06591444 -0.16350792 0.12698981
0.04550565 -0.055981927 0.06896736 0.023344927 0.029018968 0.114322826 -0.03857349 0.03776629
0.059390783 0.122574255 0.09573063 0.002940657 -0.034476742 0.10304968 0.008653092 0.07287581
-0.10481322 0.0061023673 0.08608483 -0.083696574 0.030309305 0.1943771 0.023908282 -0.06802377
-0.07801839 -0.17739947 -0.00016283503 -0.06911635 0.018045679 0.11883173 0.12803392 0.0059409067
0.2105724 0.2471884 0.25018507 0.25746998 0.16305634 0.12550174 -0.004588096 0.06704208
0.031206483 -0.019219847 -0.05164494 -0.15534288 -0.10337052 0.14720759 -0.088563405 0.058423765
0.109043255 0.08023432 0.015818382 0.1492597 -0.07531327 0.089843884 0.14106573 -0.022428172
0.08787529 0.26444465 0.11247782 0.27010736 0.20314996 0.012859717 0.19440518 0.06476898
0.002001963 0.10502951 0.06902327 0.037525635 0.14222422 0.18861777 0.1306989 0.055614043

layer1.0.bn1.weight f4 [16]
00000000: 365f 643f 5f59 7c3f 1517 883f 6409 6c3f
00000010: 8b35 833f 7db1 6f3f 0fd3 773f 529d 6e3f
00000020: 3597 783f ca68 8b3f d369 623f 63d4 803f
00000030: c1ec 823f 5318 7f3f 253f 913f 06fd 863f
0.8920778 0.9857387 1.0632044 0.9220183 1.0250715 0.936302 0.96806425 0.932088
0.97105724 1.0891354 0.88442725 1.0064815 1.0228502 0.9964649 1.1347395 1.0545967

layer1.0.bn1.bias f4 [16]
00000000: dbc8 2f3e 0e75 7ebe e9b0 2c3e 4f41 443d
00000010: 3a88 12bd eda7 17be 3976 b7bd 4644 0d3e
00000020: 57ff 323e a70b 183d 9aa3 d6bd 542d f0bc
00000030: d134 873e baff 5a3e 10ec b43e a801 b03e
0.17166464 -0.2484934 0.16864361 0.047913846 -0.035774447 -0.14810152 -0.08958096 0.13795575
0.17480217 0.037120488 -0.10480423 -0.02931849 0.26407483 0.21386614 0.3533635 0.34376264

layer1.0.bn1.running_mean f4 [16]
00000000: 8774 71bd 4110 1a40 c265 a8be 4874 533e
00000010: 52ca 80bf 0a4f a1bf 2ed4 9bbf 6f89 893d
00000020: b1e3 8dbe b8bc 70bf 0838 dfbf 2e69 513e
00000030: 781b 01c0 a820 ffbe a8cd 0d3e af1c 4cbf
-0.05894902 2.407242 -0.32890135 0.20649827 -1.0061743 -1.2602246 -1.2174127 0.067156665
-0.27712777 -0.9403796 -1.7438974 0.20450279 -2.0173016 -0.49829602 0.13847983 -0.7973127

layer1.0.bn1.running_var f4 [16]
00000000: 67c0 6b3f febb d13f 75fa 0140 eddd 0a3f
00000010: c463 a03f 0858 963f c53c 6f3f 91d1 bd3f
00000020: f435 883f f8bb a83f 32a4 fc3f d39d 113f
00000030: 80ec b63f cb9b 2540 a95e a33f 3cdb 323f
0.9209046 1.6385496 2.0309117 0.5424488 1.2530446 1.1745615 0.934521 1.482958
1.0641465 1.3182364 1.9737608 0.56881446 1.4290924 2.5876338 1.2763263 0.69865775

layer1.0.conv2.weight f4 [16, 16, 3, 3]
00000000: 65c0 72bc d0d8 aa3d 4f7c 97bd 7393 89bd
00000010: 665d 023d a99a 39be 3b59 21bc f0bd 92bd
00000020: 136e a83d 952d cd3d 1759 253e 110b 10bc
00000030: 1906 063e 2507 213d d34a 313d 0976 213e
00000040: 7cf0 e63d 7687 a8bc a11e 94bb 047a 0fbe
00000050: c8b6 df3d 2ef6 e4ba 9c96 123e 627a 3e3e
00000060: b585 6dbc a1b3 bdbc 98f5 d73c c8fd a9bd
00000070: 4899 c4bd c81e b9bd da81 b53c 86a5 3bbd
00000080: d35c bd3d a546 debc 1dbe 40be 8019 323e
00000090: 7467 3ebe 17d4 04be b477 82bc d992 18be
000000a0: 381a f33c 979d db3d 7ec4 4bbc 2a54 173e
000000b0: dc24 b23d 116a 2e3e 3b05 003d 1cfb 20bd
000000c0: cffd 043e 1295 55bd ddac cabd 9a15 433e
000000d0: cd01 d4bd 4929 aabd 6868 2cbe 11bc 583e
000000e0: 3dd8 0c3d 078c 44be d632 8e3e 019b efbc
000000f0: 1671 893d f407 943e 08ff 8f3d b2a4 5abc
00000100: 3cae 39be 32a7 2ebd bba4 cd3c bdd2 5f3d
00000110: 3608 b4bb 44f9 273e 99aa d73c 162b b2bd
00000120: 9e0c 2d3d 624b 35bb a04e 9c3d 5f05 093d
00000130: 0594 483e 49b0 4abc c16f 793d 67d0 2f3e
00000140: 827f afbc f327 03be b29a adbd 9039 2bbe
00000150: 10e6 713e 44e0 6b3d d3ba 5a3e 6311 c13d
00000160: 80ea 133e cd7e 513e 0fdf aa39 c904 d93a
00000170: 6242 2ebd 518f 893c 8662 9c3c 2553 fdbb
00000180: bc0c 5cbc aa2f 103c e075 04be 5524 8a3c
00000190: f5e4 9bbd 8ee9 d3bc 7cb8 dabd e064 12be
000001a0: 5a2c 50be ad30 aa3d 3a4f d6bc a995 1d3d
000001b0: a48b 43be 164a bebd 3793 8cbd c021 343d
000001c0: fb67 4d3a d5de 113e 9554 e43d 917c 113e
000001d0: 3b9d e0bc 33a5 80bd 719e 79bd 03fd 63bd
000001e0: 7cda 1a3e 0642 b33c 69a1 acbd dcdd 153e
000001f0: 9840 65bc ec7a 6cbd 14dc 28be 9078 1a3e
00000200: 9463 bfbd 277f 263d 812f d8bd 7f6a 6f3d
00000210: 129f 3abd b012 a83d 43ab b93d 050f b4bd
00000220: c65d 9a3d 999b 1cbe f907 0e3e b34a 663d
00000230: 1cc7 163e b762 7bbd 1834 fd3b e498 a53c
00000240: 8a21 543d 188d fdbc 26af 953d e9df adbc
00000250: c769 cdbd 5671 473c cee8 dcbd ca85 35be
00000260: 95d3 003e 0f07 8abd d95d 86be 8c85 29bd
00000270: adae 2a3d 6a89 f1bd cd38 123c 4790 a03d
00000280: 3b4c f2bd c525 833d 01cd bcbd 19af dfbd
00000290: 5ec5 a4ba 4dad d03d 15aa 14bd 9e6f b5bd
000002a0: ec71 4c3d e9af dc3c 4648 30be 74a0 27be
000002b0: a890 0c3c 1de9 a23d ebc4 ddbd c536 7a3c
000002c0: 36a5 99bd 40bb 64bd 15bb b03d d267 20bd
000002d0: 5376 09bd 55a9 103d 2007 d03d dd72 50be
000002e0: 6c50 acbd 1b52 cabb aaae e6bd ec3e 043d
000002f0: 2603 b23d 7752 a43d b677 7e3c 75d9 84be
00000300: 2710 013e bdf9 d63d 076a 08be c5e0 e03d
00000310: 8ab0 fc3d cbcd eabc 8de0 fb3d 223f 3cbd
00000320: 9724 813d 3bd7 9e3c 1ad5 3bbe e288 88bd
00000330: fafe e23c 10d3 adbd dff1 80bc 2aea 90bb
00000340: 8d74 bebd 0040 4d3d a2ac 11be 0998 88bd
00000350: ef74 213c 17b7 c63c 85d6 b83d 0a22 083d
00000360: f2b9 ae3d ad39 20bd db74 f63d 0e00 8a3d
00000370: 0c01 5bbe cde0 763d 1d72 88bd 0da5 bfbe
00000380: d083 61be 823f 233b 4d49 cf3d fbe2 45bc
00000390: e438 fbbd e650 393b 1337 2dbe f1d8 0b3e
000003a0: c4c7 1f3e 56b8 ecbd 0ab4 6cbd acb9 25bc
000003b0: 9cbb 3dbd 2925 3a3e 7104 613e 00c4 a33d
000003c0: 623c 773e 5f67 123e b09b 8dbd 774e 93bd
000003d0: bc7b fc3b d951 3bbe 2237 c2bd a466 6b3d
000003e0: 31d3 fcbd f450 e9bd e5f5 363a 93e0 fc3d
000003f0: 8691 d0bd addb 6bbd f457 3cbd dfde c8bd
-0.014816378 0.08342135 -0.07396757 -0.06717577 0.031827353 -0.18125404 -0.009847934 -0.07165134
0.0822412 0.1001846 0.16147266 -0.008791701 0.13088264 0.039313454 0.04328425 0.15767683
0.112763375 -0.020572405 -0.004520253 -0.14011389 0.10923535 -0.0017468387 0.14315265 0.18601373
-0.01449721 -0.023156943 0.026362225 -0.08300358 -0.095995486 -0.09039074 0.022156645 -0.045812152
0.092462204 -0.027133295 -0.18822522 0.1739254 -0.18594152 -0.12971531 -0.01592622 -0.14899768
0.029675588 0.10723417 -0.012436984 0.147782 0.086984366 0.17032649 0.03125499 -0.039301977
0.12987445 -0.052144118 -0.09896252 0.19051209 -0.10351906 -0.08308656 -0.16836703 0.21165492
0.03438591 -0.19194041 0.2777316 -0.029248716 0.067110226 0.28912318 0.07031065 -0.0133449305
-0.18132871 -0.04263992 0.025102964 0.054644335 -0.005494143 0.16403681 0.026326464 -0.08699624
0.04224836 -0.002766334 0.07632184 0.033452388 0.19587715 -0.012371131 0.060897592 0.17169343
-0.021423105 -0.12808208 -0.084767714 -0.16721177 0.23622918 0.057586923 0.2136033 0.094271444
0.14444923 0.20458527 0.00032591118 0.0016557212 -0.042543776 0.016791971 0.019089948 -0.007730859
-0.0134307705 0.0088004265 -0.1293559 0.016863028 -0.076120295 -0.025868203 -0.10679719 -0.14296293
-0.20329419 0.083100654 -0.026160825 0.038472805 -0.19096237 -0.092914745 -0.068640165 0.0439775
0.00078356237 0.1424516 0.11148945 0.14207675 -0.027418723 -0.06281509 -0.060942117 -0.055661213
0.15122408 0.021882068 -0.08429224 0.14635414 -0.013992451 -0.057734415 -0.16490203 0.15085053
-0.09345165 0.040648606 -0.10555936 0.058451172 -0.045561858 0.08206689 0.09065869 -0.08791927
0.07537417 -0.15293731 0.13870229 0.056223582 0.14724392 -0.06137344 0.0077271573 0.020214505
0.051789798 -0.030951068 0.073087975 -0.021224933 -0.10029941 0.0121730175 -0.107865915 -0.17726818
0.12580712 -0.067396276 -0.26243475 -0.041387126 0.04167049 -0.11793788 0.008924675 0.07840019
-0.11830946 0.06403688 -0.09218789 -0.10922069 -0.0012571027 0.101893045 -0.036295015 -0.0885918
0.049913332 0.02693935 -0.1721507 -0.16369802 0.008579411 0.07954619 -0.10828575 0.015271847
-0.075022146 -0.055842638 0.08629433 -0.03916151 -0.03356011 0.035317738 0.10157609 -0.20356317
-0.08413777 -0.0061743385 -0.11263783 0.03228657 0.08692007 0.080235414 0.015531471 -0.25947157
0.12603818 0.104968525 -0.13321696 0.109803714 0.1233836 -0.028662583 0.12298689 -0.045958646
0.06305807 0.01938974 -0.1834301 -0.06666733 0.027709473 -0.084875226 -0.015740333 -0.004422446
-0.09299574 0.050109863 -0.1422601 -0.066696234 0.009854539 0.024257226 0.09025291 0.033235587
0.0853156 -0.039117504 0.12034007 0.06738292 -0.21387118 0.06027298 -0.066623904 -0.3743061
-0.22022939 0.002490968 0.10121403 -0.012078042 -0.122667104 0.002827698 -0.1691554 0.13656975
0.15603548 -0.11558597 -0.057788886 -0.010115068 -0.046321496 0.18178238 0.2197435 0.079963684
0.24144128 0.14297245 -0.06914461 -0.071927 0.00770518 -0.18292941 -0.09483172 0.057470933
-0.12344969 -0.11392394 0.000697939 0.12347522 -0.101840064 -0.057582546 -0.045982316 -0.09808134

layer1.0.bn2.weight f4 [16]
00000000: b226 543f ec07 5d3f 6ed0 923f e5bd 863f
00000010: fa63 5a3f cb10 9a3f 52a8 883f 45bf 883f
00000020: 7237 8b3f c9d7 623f e51a 883f d321 763f
00000030: 051d 7d3f 72cb 6f3f ff3c 5a3f 200a 6e3f
0.82871544 0.8634021 1.1469858 1.0526701 0.853088 1.2036375 1.0676367 1.0683371
1.0876296 0.8861051 1.0633208 0.9614536 0.98872405 0.9366981 0.8524932 0.929842

layer1.0.bn2.bias f4 [16]
00000000: 246b 4dbd d979 043e d11e 9dbd 4fc7 9cbe
00000010: 5c16 d03d d3ed 533e 9090 453e fad7 dc3d
00000020: d6b5 693d 5053 8f3d 1f95 7d3c aa9b 613b
00000030: 4898 4c3e 4d80 c03e af80 ad3c 3da4 0b3e
-0.050151005 0.12937106 -0.076718934 -0.3062081 0.10160515 0.20696191 0.19293427 0.10783382
0.057058178 0.069983125 0.015477448 0.0034425058 0.19979966 0.37597886 0.021179525 0.1363687

layer1.0.bn2.running_mean f4 [16]
00000000: c004 393f 9dc6 70bf 36ae 39bf 91f0 fb3f
00000010: a4a8 0b3f 5715 2dbf 7a88 d1bf 5778 00bf
00000020: 47c2 97bf fca2 c03e 9927 4ebf bf4b 5dbf
00000030: 1d88 063e ed81 60bf e306 82bf ac61 7ebd
0.7227287 -0.9405306 -0.7253145 1.968279 0.545542 -0.67610687 -1.6369774 -0.50183624
-1.1856164 0.37624347 -0.8052917 -0.86443704 0.1313786 -0.8769825 -1.0158352 -0.062104866

layer1.0.bn2.running_var f4 [16]
00000000: ecb2 7d3f ab1e 8e3f 89ce a73f 65d7 db3f
00000010: 34ef 893f bf40 763f 14f3 e23f 2961 a83f
00000020: c6c4 aa3f 4130 553f a594 b93f 5ea5 a13f
00000030: ae46 4b3f fd8a 783f 56ff 9b3f e316 a43f
0.9910114 1.1103109 1.3109905 1.7175108 1.0776124 0.96192545 1.7730432 1.3154651
1.33413 0.83276755 1.4498488 1.2628591 0.79404724 0.9708708 1.2187297 1.2819484

layer1.1.conv1.weight f4 [16, 16, 3, 3]
00000000: f560 eebc e785 cfbd 7e33 6b3d 5a08 b0bd
00000010: 8f66 e5bd 4637 7dbd 24f7 2cbc 3d97 c9bb
00000020: 10e5 b0bd 4f4c a1bd 77b8 bb3d 7963 8e3d
00000030: 3904 9b3c 5137 2abd 0f41 ce3c a906 5d3c
00000040: 489b a4bd e5c9 6ebd 627f 793d 31bd bf3d
00000050: a295 e13d 14e3 4ebe 1365 fcbd debb 2abd
00000060: 7246 cc3d 91d4 eabb a600 a23d e9c9 f9bc
00000070: db49 1f3e 8f00 253e 0e99 063e e321 a73d
00000080: 9676 1f3e 05d7 a13c 3fab 02be 07f0 d5bd
00000090: 36eb 08bc d140 0bbd 7373 3f3e b6b2 6b3d
000000a0: b91e 7bbe 6216 b7bd 743f 873d 6803 f8bd
000000b0: 139f 09be 2391 78bd 1429 943d b514 c63d
000000c0: 7994 3e3c ce10 2a3d 88c2 903a b22f 2abe
000000d0: 3fa4 85be 56c0 3dbe 0783 a13d 3b21 723e
000000e0: d649 613e 312d 36ba 0402 98bd 78ee 42bb
000000f0: 1876 4c3d 93ff 0dbd 8974 9c3c a8ff d13c
00000100: b5f3 fcbd d110 96bd ba11 473d bb90 1f3d
00000110: 12e3 3fbd 5d63 7fbd f440 fc3d 0f80 eb3d
00000120: 88b4 f23d a133 063e ae47 613c f382 e33d
00000130: 3ddf 2a3c 0d72 1d3d d964 b23d 4789 903d
00000140: ff24 723c 0c8a 2e3e 29e9 09be 7089 3cbe
00000150: f39c 833e 3ba5 853d 18bb 21be d5a4 3d3e
00000160: e8fe 4e3e 1ca5 b5bd 4458 f6bd 9de6 493d
00000170: bc95 a13d 8c30 81be 8da2 f1bd 0218 a1bc
00000180: f1a9 93bd d0a7 c6bd a207 323b 5eb1 363d
00000190: 7581 58bd 771d afbd 37b5 833c 6dff 33be
000001a0: b948 a0bd 9f33 42be 71c5 2dbe 1508 7cbd
000001b0: 54c3 033e fba5 693d bc30 eb3c adb0 edbc
000001c0: 4f20 68bd a989 2cbc 57a1 6b3d 92d2 ae3c
000001d0: a227 80bb 1d74 bebd 1b9d 223e 842d 3d3e
000001e0: 7e6e 86bd 32ce 953d 6062 333e a1c2 71be
000001f0: bd8e 65be 5723 6e3d 9206 31bd 67db 6fbc
00000200: 089e 1a3e 614f 92bd f129 43bd 698f d13d
00000210: 7a20 97bd 18ab dcbd 08bf e0bb d7f5 933d
00000220: d951 a5bd 1519 e0bd 53ff 773e 5283 063e
00000230: 6fdf febd 2fef 8c3e 1847 0e3e 3b0b b8bd
00000240: c494 683d ba2d a4bd 1873 10be 39cb 15bd
00000250: b02e 2e3d 34a4 04be 47ab 7f3d 97c3 1f3d
00000260: 222e c7bd aa25 6ebe 6873 1bbd d7e5 a53c
00000270: 8400 9cbe 3994 c53d d3de b5bd c0d6 713b
00000280: 20cf 0cbe d2a9 02be 8e5c 60bd 22dc f2bd
00000290: e95c 80bd 8473 52bd f588 653d 5495 ddbd
000002a0: 6008 0dbd e295 ea3c 1b60 fa3d a320 95be
000002b0: 2582 1cbe bb21 3e3d c452 18be 1485 4bbe
000002c0: f2b2 193d 4ff1 34be d6b6 5bbe c501 b73d
000002d0: c441 4abc 8e96 0fbe 6ad2 db3d 65ca 9abd
000002e0: 4386 5fbd 5117 a33d 1a55 ff3c fa8b b2bd
000002f0: b375 ca3d f33a 6e3d d614 92bd 3b48 e9bd
00000300: 62b7 d5bd 34bb e1bd 067d 1b3d d56e 0e3e
00000310: df29 923d e631 54bd 2e10 033e 6a7d ddbb
00000320: 4652 523e efe6 4a3e c308 0e3e 09ee b03d
00000330: 77f2 913d f815 d2bd e622 5abe 34b9 febd
00000340: 4387 52bd 174a 823b d724 10be a492 413d
00000350: c967 353e 87ab 8ebe b5e3 04bd d10f 6a3e
00000360: 7500 523d 452b 193e 0fc7 263d ab4b 043e
00000370: 46fd dd3d 9a42 2dbe bbe5 023d 3337 19be
00000380: 93a9 e3bd 43e4 3e3d baec 0abe bc82 3bba
00000390: 3678 afbc 1cc9 b43d e5db a6bd b09e 093d
000003a0: 396a 4c3e efe7 61bc e91e 683d 8513 543b
000003b0: bdcc b53b ce67 efbd 7427 6f3c c586 8e3c
000003c0: 449c 5fbd e87d b43d 8cfd a63d b2a6 9dbd
000003d0: e679 9cbc ee5f aabd 1207 9ebd b4b9 713c
000003e0: 5a83 35bb 97ef f23c d9d7 f4bd a665 1c3d
000003f0: 6a66 293d 5b20 0a3d 2789 5cbd 7538 b23d
-0.029098967 -0.10132962 0.057422154 -0.08595343 -0.11201202 -0.06182029 -0.01055697 -0.006152062
-0.0863744 -0.07875883 0.09166043 0.06952567 0.018922912 -0.04155666 0.025177507 0.013490357
-0.0803743 -0.05829801 0.060912497 0.09362257 0.11014868 -0.20203811 -0.12323966 -0.04168307
0.09974374 -0.007166453 0.0791028 -0.030491786 0.15555517 0.16113494 0.13144323 0.0816076
0.1557258 0.01975585 -0.12760638 -0.10446172 -0.00835686 -0.03399736 0.18696384 0.05754348
-0.24523439 -0.08939816 0.066038996 -0.12110025 -0.13439588 -0.06068529 0.072343975 0.09671918
0.011632078 0.041519932 0.0011044303 -0.16619757 -0.26101872 -0.18530402 0.078863196 0.23645489
0.22000822 -0.0006949483 -0.074222594 -0.002974419 0.04991731 -0.034667563 0.019098537 0.025634602
-0.12351171 -0.07327426 0.04860089 0.038956385 -0.04684741 -0.06235062 0.12317076 0.114990346
0.1185084 0.13105632 0.01375 0.11108961 0.010429201 0.038438845 0.087106414 0.070574336
0.014779328 0.17044848 -0.1346785 -0.18411803 0.2570568 0.06525656 -0.15794027 0.1851991
0.20214427 -0.08869383 -0.12028554 0.049292196 0.07889888 -0.2523235 -0.11798582 -0.019664768
-0.07210148 -0.096999764 0.0027165194 0.044602744 -0.052857835 -0.08550542 0.01607762 -0.17577906
-0.07826371 -0.18965004 -0.16969849 -0.061531145 0.1286748 0.057043057 0.028709762 -0.02901491
-0.056671437 -0.010530868 0.057526913 0.021340642 -0.0039109746 -0.092994906 0.15880243 0.18474394
-0.065640435 0.07314719 0.17517996 -0.23609401 -0.22417732 0.05813917 -0.043219157 -0.014639712
0.15099347 -0.071440466 -0.04764742 0.102324314 -0.07379241 -0.10774821 -0.00685871 0.072246246
-0.08072252 -0.10942284 0.24218492 0.13136032 -0.1244496 0.27526233 0.13894308 -0.08986517
0.0567825 -0.08016534 -0.14106405 -0.03657076 0.042524993 -0.12953264 0.062419202 0.03900489
-0.09725596 -0.23256555 -0.037951857 0.020251198 -0.30469143 0.09647412 -0.08880391 0.0036901683
-0.13750887 -0.12760094 -0.054775767 -0.11858393 -0.06267721 -0.051379696 0.056038816 -0.10819498
-0.034431815 0.028635923 0.12225362 -0.29126462 -0.15284021 0.046418887 -0.14875323 -0.19874984
0.03752417 -0.17670177 -0.21456465 0.089358844 -0.012344781 -0.14022276 0.10733493 -0.07558135
-0.0545714 0.079634316 0.03116851 -0.08718105 0.098857306 0.058161687 -0.071328804 -0.1139073
-0.10435368 -0.11022034 0.03796103 0.13909467 0.071368925 -0.0518054 0.12799141 -0.0067593353
0.20539197 0.19814657 0.1387053 0.086391516 0.071263246 -0.102580965 -0.21302375 -0.124376684
-0.051398527 0.0039761174 -0.14076553 0.047258988 0.17715372 -0.2786524 -0.03244372 0.22857596
0.051269967 0.14957912 0.04071718 0.1291949 0.10839324 -0.16919938 0.03195737 -0.14962463
-0.11116328 0.046604406 -0.13566867 -0.0007152965 -0.021419626 0.08827421 -0.0814741 0.0335986
0.19962396 -0.013788207 0.056670103 0.0032360267 0.0055480883 -0.11689721 0.014596809 0.017398247
-0.054592386 0.08813077 0.08153829 -0.0769781 -0.019101094 -0.083190784 -0.07716192 0.014753748
-0.00276967 0.029655261 -0.11955232 0.038182877 0.041357435 0.033722263 -0.053841736 0.087021746

layer1.1.bn1.weight f4 [16]
00000000: 7dde 713f e16e 7b3f 2940 783f 1266 7e3f
00000010: 3c40 753f c2e5 863f 4909 843f 1248 6e3f
00000020: ff76 763f 25e8 813f 19ac 7d3f 3b31 633f
00000030: 7033 783f 450a 863f 551d 873f 9d64 963f
0.94480115 0.9821606 0.969729 0.99374497 0.9580114 1.0538867 1.0315334 0.9307872
0.96275324 1.014897 0.99090725 0.88746995 0.9695349 1.0471884 1.0555826 1.1749455

layer1.1.bn1.bias f4 [16]
00000000: 71d9 f0bd b7fb 26be 49b0 9ebe 3561 14bb
00000010: 75fc 8dbe 33d8 35bd 6444 36be 8f3b 1ebe
00000020: 0476 97be d43a 66bd 49ed 17be 123a 15be
00000030: 1746 5a3d b9b2 2cbe e9e1 59bd 3baf 503e
-0.11760224 -0.16306959 -0.3099387 -0.0022640948 -0.27731672 -0.044395637 -0.17799526 -0.15452407
-0.29582226 -0.056208447 -0.14836611 -0.14572933 0.0532895 -0.16865052 -0.05319396 0.20379345

layer1.1.bn1.running_mean f4 [16]
00000000: 4f3e f63e 053f cfbf 6fd0 63bf 47ac 2ac0
00000010: 9d36 b0be 3191 20c0 3758 75be 571c ebbf
00000020: c4a3 f63f da16 22c0 3ed2 d53c 1a18 19bf
00000030: 27c6 283e 1810 dcbd 8ca3 25c0 c92a 36bf
0.48094413 -1.6191107 -0.8898992 -2.666765 -0.34416667 -2.5088618 -0.23959433 -1.8368024
1.9268727 -2.5326447 0.026101228 -0.598024 0.16481839 -0.10745257 -2.588107 -0.71159035

layer1.1.bn1.running_var f4 [16]
00000000: f118 0540 1880 3c40 0097 1740 4033 3640
00000010: c129 8140 5e64 6640 fc54 a140 ac15 5d40
00000020: a09e 4040 998a 8d40 eb07 1940 9785 fa3f
00000030: 5f11 1d40 305b 0340 1dfd 3a40 01eb 7e40
2.0796473 2.9453182 2.3685913 2.846878 4.036347 3.599876 5.041624 3.4544477
3.0096817 4.4231687 2.3911083 1.9572018 2.4541852 2.0524406 2.9216988 3.9830935

layer1.1.conv2.weight f4 [16, 16, 3, 3]
00000000: bf0f e03d aa75 613d 668e 73bd 37e8 acbd
00000010: 4921 8abd 2386 e0bd 229f a23d 59c8 613c
00000020: 6136 333d 68f1 fb3d 7cdb a13a 928a 473d
00000030: 7d93 a73b 67f8 bb3d 19fd b0bc 4d80 2b3c
00000040: 347c 2fbb ae35 fdbd bb2a 1dbd cda8 0abb
00000050: d9f5 abbd d06b 0dbd 1ef1 5a3e e562 713e
00000060: baef b33d 95b1 0b3e ff4f 823d 340b 1fbd
00000070: 007e a93d 26dc c1bb d52a 5abd a587 fc3d
00000080: 8e7c cd3d 0e31 143e 0917 1f3d 14f6 583d
00000090: 72fb 2fbd e08e 4abc 8df3 babd f5ed 15bd
000000a0: a0ab 2ebe e137 6dbd 35e2 75be b5dd 88be
000000b0: 2e34 c93c 196f c53d d399 903c ebda b2bc
000000c0: 94bf cbbd 8829 97be 4bf3 75be 5800 8bbd
000000d0: d6e4 c2bd a9be f3bd 01a1 85be 404c 10be
000000e0: 171e 5bbd 7163 33bd 78e4 ae3c 5cdc 063e
000000f0: d075 a1bc 2a7d e53a 5372 213e e962 4ebd
00000100: b9a6 3f3d 7e4a 09be 3409 74bd eed6 323c
00000110: 78e8 28be 989f 593d e1bb ad3d ebea 9dbb
00000120: 5b41 0bbe b979 dcbd 3f32 fabc 01ef 1bbe
00000130: 7f4b 05be 1cbf 60be 2989 953c 86cf cdbd
00000140: c706 c5bc e775 83bd fcf9 4ebd 4713 e1bd
00000150: b8b2 51bd a414 393c a1f6 7a3c 0909 703e
00000160: bda9 333e 2f9a cb3d 3995 8f3d 0eac 31be
00000170: b416 e6bd 8bfa c5ba e9db 2dbe 7105 2bbe
00000180: 2b71 13be 3188 f4bd 9333 223c b6ee 2d3e
00000190: 9293 0d3e 7e02 82bd 2921 26bc 0988 123e
000001a0: d574 ff3d da70 7c3e 0e97 093e 7eda 843d
000001b0: f67e f7bd 19fe bf3d 6f7e d5bd e6f1 943d
000001c0: 0587 973d 832b 533e ce00 0abe f351 02be
000001d0: 80d5 973c de44 2c3d c40b fc3b e081 d8bc
000001e0: 86d5 173e 7997 023e a2df 913c 740d 423c
000001f0: 9168 05bc fd6b 3b3e b659 ebbc 4204 a23d
00000200: 94bb 293e a9bd 6fbd b380 c0bd de88 72bd
00000210: ab14 abbc e97d 193e 44a4 15bc 84ae bcbd
00000220: a872 1a3d 1c0c 6f3d 1286 2c3e 971e 5c3e
00000230: 3979 283e cefe 7cbd 84b6 023d 0eba 2c3e
00000240: 495e 203e bb85 e33d 5bf9 2cbb fb47 68bd
00000250: f932 32bd bded 133d 5fab fcbd 5b45 24be
00000260: fd94 243a d7e1 54be 9359 a2bd 6655 783e
00000270: c874 42be e2a2 47be 7559 573d 7ecd efbd
00000280: 1bb8 c53c 364d 403d d041 94bc 8d2b 063d
00000290: 98b3 d63c fb2a 3f3e d205 023d cf88 113d
000002a0: 0ecc 0dbd 7b46 16bd 59e1 c3bb cb6c a0ba
000002b0: dd6c 4abd be5b 5e3d 5941 8f3d 10e7 a3bd
000002c0: c3f4 dabd 10ec 0fbe a515 dfbd c1d7 45bd
000002d0: 722f 3c3e be39 3c3e 26d1 3e3e 6f22 573d
000002e0: 8de1 0a3e ebb2 cf3c 8ce1 8cbd 9ad6 9f3c
000002f0: 3005 833c f26c 2c3c c936 803d f36e b63e
00000300: 3e78 643d 63b6 5dbd 2e33 2b3e 7848 64bd
00000310: 60a8 26be f2e9 583d 0235 2abc 3e64 073c
00000320: 0413 ef3d f5e9 d7bd 7685 bebc 6b28 ec3d
00000330: 307b b43c bc1e 863d f0e0 303e 53e6 dc3d
00000340: 26d2 873d 4cd0 623d 6f39 83ba 1d75 a53c
00000350: 0ee2 5dbd aa45 4b3d dfea b23d 01ed 9abc
00000360: bf6b 1abe c8c2 4cbe 2c40 debd aaf3 2bbe
00000370: 46c3 4bbe ad96 3abe 5e5d 2d3b 9dc9 d0bd
00000380: 0eb1 94bc e1fa 3cbd b656 7cbe b563 ebbd
00000390: db8a b8bd 5149 3cbc 68b6 40bd 7e9d c03d
000003a0: 60b4 a53c e2cf c13d bcda a4bc 70a8 b63c
000003b0: 0ccb 9abc c8c0 83bd 268d c63d 8bff 473c
000003c0: 6b2d 78bd 4c84 72bd d6e7 283d e79c e1bd
000003d0: fc91 8e3d e759 113e 9a75 29bd ae79 563d
000003e0: 7948 583d 35fc ff3c 5384 a4bd 59de bdbd
000003f0: 43b5 d73d 1d76 0f3e aaa7 423d cf8f 05ba
0.10940503 0.055043854 -0.059461974 -0.08442729 -0.0674463 -0.109630845 0.079405084 0.013780677
0.04375303 0.12301904 0.0012348737 0.048716135 0.0051140175 0.09178238 -0.021605061 0.010467601
-0.0026776912 -0.12363754 -0.03837083 -0.0021157742 -0.08396501 -0.034526646 0.21381041 0.23572882
0.087859586 0.13641961 0.06362914 -0.038829044 0.08275986 -0.0059161363 -0.053263504 0.1233056
0.100335225 0.14471838 0.038840327 0.052969053 -0.042964406 -0.012363166 -0.09128485 -0.036603887
-0.17057657 -0.05791462 -0.24012072 -0.2673165 0.024561014 0.09640331 0.017651474 -0.021832904
-0.0994865 -0.29523873 -0.2401859 -0.06787175 -0.09516303 -0.119016 -0.260994 -0.14091587
-0.053495493 -0.043796007 0.021349177 0.13169998 -0.019709498 0.0017508615 0.15766267 -0.050387297
0.04678986 -0.13407323 -0.05957909 0.010915501 -0.1649493 0.053130716 0.08483101 -0.004819264
-0.1359915 -0.10765404 -0.030541537 -0.15227892 -0.1301708 -0.21947902 0.01825388 -0.100493476
-0.024051083 -0.064189725 -0.050531372 -0.10990005 -0.05119583 0.011296425 0.01531759 0.23440947
0.17545219 0.099415176 0.07010884 -0.1735079 -0.11234799 -0.0015104575 -0.1697842 -0.16701294
-0.14398639 -0.11940039 0.009899992 0.16985592 0.13825825 -0.063481316 -0.010139742 0.14309706
0.12473456 0.24652424 0.13436529 0.064869866 -0.12084763 0.09374637 -0.10424506 0.07272701
0.073988 0.20622067 -0.1347687 -0.12726574 0.018534422 0.042057864 0.0076918323 -0.026429117
0.14827546 0.12753095 0.017806832 0.011844028 -0.008142606 0.18302913 -0.028729301 0.07910968
0.16575462 -0.058530483 -0.093995474 -0.059212558 -0.020883879 0.14989437 -0.009133402 -0.09212974
0.037707 0.058361158 0.16848019 0.21496044 0.16452493 -0.06176644 0.03191234 0.16867849
0.15660967 0.111094914 -0.0026393745 -0.05670927 -0.043505643 0.036115397 -0.12337374 -0.16042082
0.00062783045 -0.20789276 -0.07927241 0.24251327 -0.18989861 -0.19495729 0.052575547 -0.117091164
0.02413564 0.046948634 -0.018097788 0.032756377 0.026208684 0.1866874 0.031743832 0.03553086
-0.03461843 -0.03668831 -0.0059777913 -0.0012239454 -0.049420226 0.05428671 0.06994886 -0.08003056
-0.10691216 -0.14054894 -0.108928 -0.048301462 0.18377474 0.18381402 0.18634471 0.052523073
0.13562603 0.02535387 -0.06878957 0.01951151 0.015993685 0.010524021 0.062604494 0.35631523
0.055778734 -0.054129016 0.16718742 -0.055733174 -0.16275167 0.052957483 -0.010388615 0.008263646
0.11673549 -0.10542671 -0.023256999 0.115311466 0.022031397 0.06548831 0.17273307 0.10786118
0.066318795 0.05537443 -0.0010011623 0.020197446 -0.05417066 0.049626984 0.08736204 -0.01891184
-0.15080164 -0.19996178 -0.108520836 -0.16792169 -0.1989871 -0.18221541 0.0026453356 -0.10194705
-0.018150833 -0.046137694 -0.24642453 -0.11493627 -0.090108596 -0.011492089 -0.047048956 0.09405039
0.020227611 0.094634786 -0.020123832 0.022297114 -0.018895648 -0.064332545 0.09694891 0.012206922
-0.06059019 -0.0592082 0.04123672 -0.11016255 0.06961438 0.14194451 -0.04137192 0.052362137
0.05280349 0.031248191 -0.08033051 -0.09270925 0.1053262 0.140099 0.04752318 -0.00050949765

layer1.1.bn2.weight f4 [16]
00000000: a5a9 733f dd77 583f b065 6a3f f828 683f
00000010: b2d5 4d3f c691 a33f 06d7 873f 361f 683f
00000020: 1f59 783f 43a0 8b3f 3c71 5a3f fdf0 803f
00000030: c9c9 623f 4f70 853f 5e49 503f b29d 813f
0.9518073 0.84557897 0.9156141 0.90687513 0.804042 1.2778862 1.0612495 0.90672624
0.9701099 1.0908283 0.8532903 1.0073544 0.8858915 1.0424899 0.8136195 1.012625

layer1.1.bn2.bias f4 [16]
00000000: 6866 6d3d 5af4 393e 2cfb 14be 6232 e23d
00000010: 0935 0fbe 5ca2 8dbc 9c59 463e 5b3a d03d
00000020: 6dae 253c 95dc 57be 91ae 9bbd f72a 0a3c
00000030: bf9d c23d 0e3f 053e 794a 3aba aabc 53bd
0.05795899 0.18159619 -0.1454894 0.11044766 -0.13985075 -0.017289333 0.19370121 0.101673804
0.010112387 -0.21080239 -0.07601655 0.008433095 0.09502744 0.13012335 -0.0007106434 -0.051693596

layer1.1.bn2.running_mean f4 [16]
00000000: 9d9c 3a3e c02a 8cbf 76bf 0fbf fc87 24bf
00000010: 700a 743f cf9f 113f 9df1 8fbe 4c22 2abe
00000020: 67f0 56bf 8667 04bf 5243 1bbe 30d3 0ebf
00000030: f7e1 7dbf 6012 93bf 4684 c5bf d06a 2fbf
0.18223806 -1.0950546 -0.5615152 -0.64269996 0.95328426 0.56884474 -0.28114024 -0.16614646
-0.83960575 -0.51720464 -0.151624 -0.55790997 -0.9917292 -1.1489983 -1.5430992 -0.6852236

layer1.1.bn2.running_var f4 [16]
00000000: 3435 8c3f b614 813f 6409 613f c1ec 843f
00000010: 5ea9 783f 8f0a 703f ebce 723f e5de 8b3f
00000020: 9168 7c3f edc7 673f 53ae 693f c2aa 483f
00000030: 86fc 473f faf3 463f 915a 9a3f 8b63 7c3f
1.0953736 1.0084445 0.87904954 1.0384752 0.97133434 0.9376611 0.9484698 1.0927397
0.98597056 0.9053944 0.9128162 0.78385556 0.78119695 0.7771603 1.2058889 0.9858939

layer2.0.conv1.weight f4 [32, 16, 3, 3]
00000000: e1f6 77bd b01e cbbb f052 10bd e343 f0bd
00000010: 24ba debd 4dc5 d6bd 9f94 0c3c 385c 7cbd
00000020: b464 e6bc cdd7 16be 9b90 6cbe 18db 1dbe
00000030: 6620 2d3a 1a2a 70be 324e e1bd dc6c dd3c
00000040: 5764 f3bd 1f7b aebd 19cf fdba 75ea 9d3d
00000050: 2cf3 c83d 4345 c73c 1923 153e 320e e53d
00000060: 509f c83c fbb1 c03d 6122 213e 27d0 88bd
00000070: 39ed 7fbd d272 8cbc a267 2cbd cb69 0abe
00000080: 5c84 b8bd 99a7 25bd ded3 dabd 02e0 16be
00000090: 8bfc bc3d 0490 17bc cf07 84bc 79c6 19bd
000000a0: e517 0dbe 07d6 e7bd ab78 81be 3d2c acbd
000000b0: 7c03 2bbe 79f4 953d 67b4 003e 26be e93d
000000c0: 6c45 3abc e72c 973d 69d4 9cbb dafc 023d
000000d0: 3895 be3c 80ba d9bd d433 853c 4233 cb3d
000000e0: 9901 423c 8d4d 0c3e 613c d73d 87cb e33d
000000f0: 9b42 2b3e 79c6 5e3e be0f 5d3e c98d d6bb
00000100: 5855 08bd 85ce e43d b6cf a6bc 311d e5ba
00000110: 1187 11bd d168 a23c 251e ecbd 8485 14bd
00000120: 0f90 20be 11c9 22be 9ca7 81bd 3774 54be
00000130: d893 8dbe 5779 14be 0eb2 1e3c 9970 c4bd
00000140: fc83 cbbc 5a95 85bd 378d a0bd 4441 5cbd
00000150: 4920 eabd bc97 8abe 4079 80be 27b9 73bc
00000160: 6e56 4ebe 0306 6dbe 0994 71be 2875 d6bd
00000170: 3668 213e 69ba 9abe 6822 83be b26f 603d
00000180: 53c2 4ebe 4429 3dbe 3011 ad3d 6b88 773d
00000190: 2ab0 1c3d aefc 0a3d a9d5 393e 3f8b 083c
000001a0: ccde 56bc 1803 343e 2580 1b3e 2d99 2c3d
000001b0: bf21 69bd a220 f5bd a358 03be 61c2 0abd
000001c0: 09aa 74be 5bec 02be 3a23 613d 9fa8 22bd
000001d0: c607 f0bd 20a4 393e 7e7d 003e a8a6 f13b
000001e0: d7cc e73c 60e8 913d bd08 2d3d 5e46 503b
000001f0: 4f0c 073d 1b65 113c 028d ad3c df7a 79bc
00000200: 9d5a 28be 121d c1bc a000 7939 cdfa 4cbb
00000210: 2e08 38bd ae19 a93b 0af6 c13d 665f 6bbd
00000220: 612b e6bb c2f0 4dbc a2bf 6abd d6c4 27bd
00000230: e3a6 04be 33b2 903d cc97 1f3c 4375 9abd
00000240: cda6 e8bd cc03 473d 7803 253e d7ae 1ebe
00000250: ee14 3c3e 45a4 ffbc 9059 24bd a231 2c3e
00000260: d171 9dbd 3100 473d be5e 4c3d 3cd2 83bd
00000270: 59b5 2f3d a512 91bd d2f2 363d 331a 073a
00000280: 3e84 b1bc 9186 8e3d c1ba f7bc 4ff9 f8bc
00000290: 8dd3 c33c bf56 c5bd bb03 82bb ec92 16bd
000002a0: dbc9 b5bd dc41 123e 6aa9 b6bd 19dc 07bd
000002b0: 025a 26bc 3bc5 05bd 09cb 4c3d 30de c1bd
000002c0: bbc4 e4bd 8bee b33d 1f0d 1bbe 91db c33c
000002d0: 17ee 2f3c 4253 d53c b429 12bd af4f 8bbc
000002e0: a43c 013d 83c3 d5bb 9d2f 883d 1a03 64bd
000002f0: 269b 79bd b413 783c 1ce1 41be 332d 903d
00000300: fee5 35be 8f21 073e 8291 463e 484c 383d
00000310: bf72 083e 436f 36be eba3 e63d 1116 96be
00000320: 9478 243e cd5f 02be 2eeb 883d 4025 bbbb
00000330: 8317 dabd e4bd 723e 19c6 cbbd 56a4 4e3d
00000340: e10f 683d de8d bdbd 6a58 623d c5f6 f4bc
00000350: 8f57 9c3d 51f7 e3bc 0b34 073c 9457 de3c
00000360: 4831 2abe f651 3f3e 17c2 c8bd eb54 dc3c
00000370: 5c81 1f3e 5622 42be cde7 4e3e a8c8 febd
00000380: ac90 fc3d cf36 0a3d 2546 8bbd 0422 a63d
00000390: f138 09be 3d05 fd3d e8b1 13bd 76b3 233c
000003a0: e798 283e ad4a 39be 8b46 99bd 6631 01bd
000003b0: 5eba f0bd c69f 253c ac16 253e 66ca 89be
000003c0: 1016 ea3d 3b2e 4dbe 7c54 d73d d36b c1bc
000003d0: 614c 1d3e 639a 0abe be93 9b3d 8f0f f8bd
000003e0: e287 0abd faad dd3c 5224 afbd cd38 9d3d
000003f0: 900c e9bc ca15 45bd 6af3 f53d 7c7e 18be
-0.060538176 -0.0061987266 -0.035235345 -0.11731698 -0.10875347 -0.10486851 0.008580356 -0.061611384
-0.02812419 -0.14730759 -0.23102038 -0.15415609 0.0006604254 -0.2345356 -0.11001243 0.027029447
-0.11884373 -0.08519577 -0.0019364088 0.07710735 0.09812006 0.024325019 0.1456417 0.11184348
0.024490029 0.09408947 0.15735771 -0.06680327 -0.062482093 -0.017144594 -0.04209102 -0.1351692
-0.090096205 -0.040443037 -0.10684942 -0.1473389 0.09227856 -0.009250645 -0.016117005 -0.037542794
-0.13778646 -0.11320119 -0.25287375 -0.08406875 -0.16700548 0.0732202 0.12568818 0.11413221
-0.0113690905 0.07381611 -0.0047860635 0.03197942 0.023264512 -0.10631275 0.016260065 0.09921886
0.011841201 0.13701458 0.10509563 0.11122804 0.16724627 0.21755399 0.21588036 -0.006547664
-0.033284515 0.11172203 -0.020362716 -0.0017480013 -0.0355292 0.019825371 -0.11529187 -0.036260143
-0.15679954 -0.15897013 -0.06330797 -0.20747457 -0.27651858 -0.14499412 0.009686006 -0.09591789
-0.024843208 -0.06522627 -0.078394346 -0.05377318 -0.11431939 -0.2706889 -0.25092506 -0.014875687
-0.20150158 -0.23146825 -0.23591627 -0.104715645 0.1576241 -0.30220345 -0.25612187 0.05479402
-0.20191316 -0.18472773 0.08450544 0.060432833 0.03825394 0.03393238 0.18147911 0.00833398
-0.013114642 0.17579305 0.15185602 0.042138267 -0.05691695 -0.11969115 -0.12826781 -0.03387678
-0.23892988 -0.12785475 0.054965235 -0.03971159 -0.11720233 0.18129015 0.12547871 0.0073746033
0.028295917 0.071244 0.04224466 0.0031780223 0.032970723 0.008874203 0.021185402 -0.015227049
-0.16440816 -0.023573432 0.00023746723 -0.0031277419 -0.044929676 0.005160532 0.09470756 -0.057464026
-0.007024214 -0.012569608 -0.05731166 -0.0409592 -0.12954287 0.07065239 0.009740781 -0.07541897
-0.1135994 0.048587605 0.16114604 -0.15496384 0.18367359 -0.03120626 -0.040124476 0.16815808
-0.076877244 0.048584167 0.04989504 -0.064365834 0.042897556 -0.07083634 0.044665165 0.00051537453
-0.021669503 0.0695926 -0.030240418 -0.030392317 0.023904586 -0.09635686 -0.00396773 -0.03676121
-0.088763915 0.14282936 -0.08919032 -0.033168886 -0.0101532955 -0.032658797 0.049998317 -0.09466207
-0.11170336 0.08785733 -0.15141724 0.023908408 0.010737917 0.026040677 -0.035684302 -0.01700577
0.031551972 -0.006523551 0.066497065 -0.05566702 -0.060938977 0.015141416 -0.18933529 0.07039871
-0.17763516 0.13196395 0.19391444 0.044994622 0.13325022 -0.1781588 0.112617336 -0.2931371
0.16061622 -0.12731858 0.06685482 -0.0057112277 -0.10649016 0.2370525 -0.099498935 0.05044969
0.05665577 -0.09255575 0.0552601 -0.029902825 0.07633888 -0.02782789 0.008252154 0.02714137
-0.16620362 0.1868361 -0.09802645 0.02689596 0.1557669 -0.1895841 0.20205612 -0.12440616
0.123322815 0.033743676 -0.068004884 0.08111957 -0.13400628 0.12354515 -0.036058336 0.009991517
0.16464578 -0.18094893 -0.07484158 -0.03154125 -0.11754297 0.010108894 0.1612193 -0.2691223
0.11429989 -0.20037167 0.10514161 -0.023610985 0.15361167 -0.13535456 0.07596539 -0.121123426
-0.033820994 0.027060498 -0.085518494 0.076768495 -0.028448373 -0.048116483 0.12009318 -0.14892

layer2.0.bn1.weight f4 [32]
00000000: 84fa 723f 8f0e 853f 7a19 733f c7e1 583f
00000010: 9f58 553f 6e29 9c3f 49ce 833f 3656 513f
00000020: daee 7a3f a16c 853f 9864 7d3f ed15 8e3f
00000030: 7e3e 7f3f 1be1 6c3f 1020 793f 22f4 703f
00000040: 4330 863f e741 723f fc4c 6f3f 2b21 593f
00000050: 9b26 733f 5ca5 563f 46c5 963f dd20 7d3f
00000060: c7e6 803f 70f3 673f 2561 853f f203 583f
00000070: 019c 893f aef3 953f 6d6c 823f 5807 623f
0.94913507 1.0395068 0.9496075 0.8471951 0.8333835 1.2200143 1.0297328 0.8177217
0.9802071 1.0423776 0.9898162 1.1100441 0.9970473 0.92530984 0.9731455 0.9412252
1.0483478 0.9463181 0.93476844 0.84816235 0.9498078 0.8384607 1.1778953 0.9887827
1.0070428 0.9060583 1.0420271 0.8438102 1.0750734 1.171499 1.0189339 0.88292456

layer2.0.bn1.bias f4 [32]
00000000: 4276 b1be 054b e8bd 0301 87be 7531 1ebe
00000010: 3aca 6cbe 7bfa 3abe 972a 8bbd 593f 2cbe
00000020: a2d9 073e 7ef3 8ebe a8d5 a6be 35e4 f73b
00000030: 221e 68be 17d4 90bd 9f4f 72bd 3cd3 94be
00000040: 12fd 9abd 9df4 6fbe eed3 0abe 2a7b 1abe
00000050: d130 8fbe aca4 93be 650f 00be fa09 9bbd
00000060: e948 68be b84e b2be cf8e 30bd 1e0e 2bbe
00000070: f110 05be ef5f 2bbe 7410 59be f05e bdbd
-0.34660536 -0.11342434 -0.2636796 -0.15448554 -0.23124018 -0.18259613 -0.06795233 -0.1682104
0.13266614 -0.27920145 -0.32584882 0.007565046 -0.22667745 -0.07071703 -0.059157964 -0.2906741
-0.075678006 -0.23433156 -0.13557407 -0.15086046 -0.2796693 -0.28836572 -0.12505873 -0.07570262
-0.22684063 -0.34825683 -0.043104943 -0.16704604 -0.12994744 -0.16735815 -0.21197683 -0.092466235

layer2.0.bn1.running_mean f4 [32]
00000000: 5a92 4bc0 42ae 16bf 3fba be3f f57a 703f
00000010: 5913 a8bc 35e6 65bd a598 efbf 1f17 abbf
00000020: 083d edbe 016a a9bf 1e42 8dbf 0035 4fc0
00000030: 033a 03bf bb1c 85bf f053 6ebf e1ad a3bf
00000040: b842 2fbe 48db 38be 9019 cf3e 0454 05bf
00000050: 06b6 a3bf a70f a6bf 7897 a03e 9117 31c0
00000060: 82e3 bcc0 582e 8e40 b7d2 89bf 14bd 2940
00000070: 04a4 abbf 1be2 65bf a0ba 0c3d d23a 9abf
-3.1808076 -0.58859646 1.4900588 0.9393762 -0.020517038 -0.056127746 -1.8718458 -1.3366431
-0.46335626 -1.3235475 -1.1035802 -3.2376099 -0.51260394 -1.0399393 -0.9309683 -1.2787439
-0.17115295 -0.18052399 0.4044919 -0.5208132 -1.2789924 -1.2973527 0.3136556 -2.7670634
-5.902772 4.443157 -1.076743 2.6521654 -1.3409429 -0.89798135 0.034357667 -1.20492

layer2.0.bn1.running_var f4 [32]
00000000: 1874 9f40 ea5d 9040 3ba4 af40 6fa6 7240
00000010: 4f1b 9640 7ba0 0841 95f5 ec40 ac4c 8240
00000020: beec c340 de6b 9240 dda5 d340 be30 9f40
00000030: a110 a840 3cd5 a640 cf14 a040 7372 a740
00000040: 24ce fc40 68e8 6d40 4a4b 9740 787f 7240
00000050: 5620 7b40 de4e 8940 28a6 1841 ffca ae40
00000060: ab77 fc40 3fb9 b940 ce33 0141 4576 7040
00000070: 626b d240 146e f940 8c22 da40 3589 b640
4.9829216 4.511464 5.4887977 3.7914083 4.6908336 8.53918 7.4049783 4.0718594
6.122649 4.5756674 6.613997 4.9747 5.25203 5.2135296 5.00254 5.232721
7.9001637 3.71731 4.7279406 3.78903 3.9238486 4.2908773 9.5405655 5.46228
7.889608 5.803863 8.075148 3.7572186 6.5756083 7.7946873 6.816717 5.704249
